name_classifier_ts.pt (torch, 282947 bytes, 8 tensors)

weight f4 [150, 185]
-0.15466812 -0.016159499 -0.067703515 -0.07262172 -0.0026863315 0.0013566294 0.11097485 -0.0006719732
0.097154215 -0.2000306 -0.021810314 0.22353067 0.100175165 0.07577127 -0.0664921 0.007903396
-0.045503594 -0.041073207 0.14561945 -0.046772793 0.04282151 -0.14013782 -0.0022709877 0.07897367
0.15475824 -0.34730843 -0.05723551 -0.026961476 -0.11087684 -0.08193015 0.042151622 0.11386271
0.23523198 0.027750203 -0.13842744 -0.0961558 0.054060806 0.08565815 0.016431129 -0.060037237
-0.0048662457 0.149457 0.089786686 0.08069036 0.10826741 -0.0582966 -0.04362841 -0.039579965
0.088492095 -0.022465704 0.0007909937 0.16309193 0.022742832 -0.050923035 -0.06440824 -0.026011083
-0.0650767 -0.009001503 -0.02951408 -0.0030700164 0.027476396 0.011283039 -0.0693377 0.027434902
-0.024322191 -0.08864799 -0.060973495 0.010791435 -0.025340071 0.030711556 -0.035067234 -0.042839482
0.053641215 0.04105929 0.057386503 0.007496106 0.08732582 -0.048957374 0.014361363 0.039848935
0.074112415 0.024885816 0.014365912 -0.020159137 0.06881042 -0.047681652 0.085796885 0.10043119
0.014593898 0.094301574 -0.07585679 -0.006884304 -0.025335465 0.055328727 -0.06660212 -0.09459849
0.07505611 -0.0012005868 -0.034649692 0.061272748 0.013434058 -0.05695807 0.042982787 -0.09289289
0.016004577 0.020542223 -0.087567516 -0.05113812 -0.048949756 0.028160986 -0.03792153 -0.0068031456
-0.04510903 0.09056541 0.086694606 -0.032261457 0.044819877 0.09517155 0.05565994 -0.116072446
-0.007669527 -0.025062248 -0.011530341 -0.0853561 0.04663252 -0.022374311 -0.06308203 0.07451971
-0.0073814127 -0.009510797 -0.0818064 -0.054843064 0.038104367 -0.030208167 0.010824528 -0.044312637
0.08522664 0.036087494 0.009456991 0.06619486 0.053050376 -0.06849617 -0.081727326 -0.09765972
-0.028206225 0.052395348 -0.0350625 -0.03291885 0.13703988 0.010361016 0.05495989 0.07578347
-0.0013534161 -0.029173378 0.036162857 -0.06643425 -0.026257485 -0.07440264 -0.044792753 -0.020214299
0.07305599 -0.050027087 -0.06445441 -0.014870937 -0.059281252 0.052137196 0.04472085 0.08547268
0.008541886 -0.07637832 -0.05977622 0.022099007 0.05905025 0.06845639 0.023366846 0.018093152
0.036267098 0.0071190693 -0.12282391 0.056963287 0.061322555 -0.03966816 -0.039852533 0.07485814
0.032245595 -0.14922616 -0.018267423 -0.30877057 -0.043607228 -0.14527124 0.20646356 -0.27192006
0.0602599 0.060896486 0.044417653 0.33554035 -0.23379922 0.02161196 -0.106032506 -0.0013198159
-0.09111073 -0.031875413 -0.16893306 0.10547399 -0.032589447 0.11852196 -0.11031669 0.06539211
-0.00086346455 0.099036835 0.15747069 -0.0013133745 -0.0076430566 -0.053698126 -0.04923327 -0.05533025
-0.017985903 -0.0016482641 0.11353852 0.14670445 0.13119243 0.1986179 -0.11117302 0.09451065
-0.05147162 -0.01943186 -0.09922365 -0.0016756805 -0.08122847 0.14762402 0.052429248 0.040922944
-0.117810175 -0.036461886 0.13084657 0.10494315 -0.060974665 -0.014991433 0.033874616 -0.011765808
-0.044456095 -0.13605908 0.03351626 0.041474234 -0.022043679 -0.065258846 0.010018757 0.04090616
0.049294133 -0.054265812 -0.023328807 -0.060951047 -0.026591588 -0.037183154 0.030393682 0.030979667
00000000: 5261 1ebe ed60 84bc 24a8 8abd b2ba 94bd
00000010: 2a0d 30bb eed0 b13a c846 e33d 5c27 30ba
00000020: caf8 c63d d2d4 4cbe 8bab b2bc 39e5 643e
00000030: a328 cd3d f82d 9b3d 032d 88bd 3f7d 013c
00000040: fa61 3abd 613c 28bd 441d 153e d494 3fbd
00000050: 9c65 2f3d 4a80 0fbe dad4 14bb f3bc a13d
00000060: f278 1e3e 69d2 b1be c86f 6abd 50de dcbc
00000070: 6613 e3bd ffca a7bd 2ea7 2c3d da30 e93d
00000080: a7e0 703e 6554 e33c ecbf 0dbe 55ed c4bd
00000090: dd6e 5d3d 8a6d af3d 939a 863c 9be9 75bd
000000a0: 0775 9fbb 410b 193e 15e2 b73d fd40 a53d
000000b0: 4ebb dd3d 6ac8 6ebd b4b3 32bd 9a1e 22bd
000000c0: 583b b53d ff09 b8bc b05a 4f3a 9201 273e
000000d0: 2d4f ba3c ac94 50bd 78e8 83bd 3215 d5bc
000000e0: ef46 85bd 0a7b 13bc 83c7 f1bc 5432 49bb
000000f0: 2e16 e13c 7fdc 383c ed00 8ebd 29bf e03c
00000100: 553f c7bc 148d b5bd 58bf 79bd 8fce 303c
00000110: fb95 cfbc cd96 fb3c a9a2 0fbd 7478 2fbd
00000120: e4b6 5b3d c92d 283d 1c0e 6b3d e5a1 f53b
00000130: e1d7 b23d 8787 48bd ec4b 6b3c a338 233d
00000140: 40c8 973d 57dd cb3c 015f 6b3c c624 a5bc
00000150: 7aec 8c3d d64d 43bd 47b6 af3d deae cd3d
00000160: 3f1b 6f3c 2f21 c13d ce5a 9bbd ba95 e1bb
00000170: 528c cfbc 60a0 623d b166 88bd dabc c1bd
00000180: 05b7 993d 025d 9dba d6ec 0dbd 22f9 7a3d
00000190: 861a 5c3c dd4c 69bd b80e 303d a13e bebd
000001a0: 081c 833c 2a48 a83c 9956 b3bd 3576 51bd
000001b0: 8a7f 48bd deb1 e63c 9b53 1bbd ecec debb
000001c0: 3fc4 38bd 5c7a b93d f18c b13d 9724 04bd
000001d0: 0c95 373d 4de9 c23d adfb 633d 64b7 edbd
000001e0: a850 fbbb 584f cdbc c1e9 3cbc 2ecf aebd
000001f0: be01 3f3d 554a b7bc 2731 81bd ca9d 983d
00000200: c7df f1bb 2dd3 1bbc 1d8a a7bd 1fa3 60bd
00000210: 5313 1c3d 1e77 f7bc 5c59 313c 2b81 35bd
00000220: 4e8b ae3d 7bd0 133d 7ff1 1a3c 2c91 873d
00000230: 5a4b 593d b847 8cbd a860 a7bd d201 c8bd
00000240: be10 e7bc 819c 563d b29d 0fbd ebd5 06bd
00000250: 2f54 0c3e 40c1 293c 9f1d 613d 5d34 9b3d
00000260: 1c65 b1ba 02fd eebc 811f 143d ae0e 88bd
00000270: f019 d7bc 6960 98bd 9b78 37bd 7598 a5bc
00000280: 619e 953d 34e9 4cbd ac00 84bd 3ba5 73bc
00000290: e6d0 72bd d08d 553d 362d 373d 4d0c af3d
000002a0: 44f3 0b3c 3d6c 9cbd e9d7 74bd fa08 b53c
000002b0: adde 713d dd32 8c3d d46b bf3c 1738 943c
000002c0: cf8c 143d 1547 e93b 1a8b fbbd 5652 693d
000002d0: 5c2d 7b3d 157b 22bd 693c 23bd 394f 993d
000002e0: f513 043d bece 18be 90a5 95bc 2d17 9ebe
000002f0: 7e9d 32bd fcc1 14be 2f6b 533e 1b39 8bbe
00000300: 16d3 763d 986e 793d 49ef 353d f2cb ab3e
00000310: 1069 6fbe 910b b13c 9227 d9bd acfd acba
00000320: 4398 babd cb8f 02bd cafc 2cbe bf02 d83d
00000330: 837c 05bd a4bb f23d b7ed e1bd 4cec 853d
00000340: 205a 62ba d3d3 ca3d ff3f 213e 8925 acba
00000350: 9b72 fabb 91f2 5bbd d3a8 49bd f9a1 62bd
00000360: 2c57 93bc 910a d8ba e286 e83d b139 163e
00000370: 4f57 063e 7e62 4b3e aeae e3bd cd8e c13d
00000380: e8d3 52bd 902f 9fbc c535 cbbd 82a2 dbba
00000390: 1d5b a6bd c02a 173e 0dc0 563d d19e 273d
000003a0: 7646 f1bd 0f59 15bd a5fc 053e 6fec d63d
000003b0: 92c0 79bd a19e 75bc 1cc0 0a3d 60c5 40bc
000003c0: 9817 36bd 1253 0bbe 5948 093d e3e0 293d
000003d0: f294 b4bc 6ea6 85bd b625 243c 388d 273d
000003e0: a5e8 493d d445 5ebd 0e1c bfbc cea7 79bd
000003f0: 9ad6 d9bc 5d4d 18bd 2cfc f83c 12c9 fd3c

bias f4 [150]
0.06223514 0.023026813 0.005234988 0.022937158 0.030624501 0.040293943 -0.0760596 -0.04809342
0.05055222 -0.072824635 0.040914893 0.063793674 -0.062465444 -0.011479026 -7.224269e-05 -0.036948755
0.044462934 -0.037587278 0.1748368 -0.030881627 0.08276857 0.011472844 -0.09074399 0.03325857
-0.02146032 0.06921327 -0.03174108 0.054062486 0.03239855 -0.063238226 -0.10437415 -0.00113622
0.00043489656 -0.042857338 0.023253083 0.044335853 0.005702289 -0.036977213 -0.0710339 -0.047084834
-0.00059663324 0.07316433 -0.03527132 0.06094566 0.007492751 0.035668857 0.17790478 0.025819326
0.03701154 0.023212638 -0.014304894 -0.052302983 0.078992195 -0.030009795 0.021043977 0.18152966
0.07532952 -0.0028098053 -0.048727542 -0.017460246 -0.02586859 -0.08160805 0.061312944 0.033670377
-0.013879312 -0.007298134 -0.030766485 0.01824603 -0.06690226 -0.033890337 0.010376766 0.037840538
-0.027556079 -0.052485935 -0.036037296 0.0016230298 -0.030735618 -0.023780137 -0.05723796 -0.038531344
0.05951507 0.011635013 0.0409887 -0.05401746 0.022073004 0.06789065 0.059593562 -0.016155591
-0.03339887 0.09128876 0.06110982 0.0011101696 0.0005844701 -0.05676163 -0.012982682 0.03679799
0.037483163 -0.05514357 -0.040139392 0.057794213 0.063115746 0.049227055 -0.028931525 -0.082332805
0.1275773 -0.0759876 -0.094934195 0.0100894235 0.037827205 -0.038908895 -0.03518683 -0.053646017
0.05420871 0.010327994 0.00952406 0.03202476 0.025671247 -0.021005612 -0.002885717 -0.047339104
0.017529521 -0.02389416 0.023249965 0.03971069 -0.039176065 -0.008252686 0.04614813 -0.03549368
0.019645678 -0.045622006 -0.02145244 -0.023185302 -0.074628904 -0.053261667 0.018854212 -0.04760552
0.017295415 0.07397945 -0.07212293 -0.10579245 -0.029089024 0.052743863 0.061626997 0.13269752
-0.013463361 -0.012164907 0.07219251 -0.09775161 0.031190375 0.11111071
00000000: 46ea 7e3d baa2 bc3c 438a ab3b b5e6 bb3c
00000010: 3ce0 fa3c 430b 253d 23c5 9bbd 9bfd 44bd
00000020: d80f 4f3d 1525 95bd 6096 273d 42a6 823d
00000030: c4db 7fbd 8612 3cbc 0081 97b8 9457 17bd
00000040: c41e 363d 1ef5 19bd 6b08 333e 77fb fcbc
00000050: 9182 a93d 98f8 3b3c fcd7 b9bd 233a 083d
00000060: 8ecd afbc b0bf 8d3d ef02 02bd a070 5d3d
00000070: 58b4 043d 0b83 81bd 1dc2 d5bd 37ed 94ba
00000080: d402 e439 2d8b 2fbd 407d be3c 8399 353d
00000090: 44da ba3b 6b75 17bd 397a 91bd 07dc 40bd
000000a0: 6167 1cba 2ed7 953d a978 10bd 28a2 793d
000000b0: c085 f53b 8219 123d ac2c 363e 0d83 d33c
000000c0: 6a99 173d 6e28 be3c 135f 6abc a73b 56bd
000000d0: a9c6 a13d 1ad7 f5bc 6b64 ac3c e9e2 393e
000000e0: 5d46 9a3d b624 38bb 8896 47bd ca08 8fbc
000000f0: 5eea d3bc 1f22 a7bd 4823 7b3d f3e9 093d
00000100: 0e66 63bc 2f25 efbb ff09 fcbc b378 953c
00000110: 0d04 89bd 98d0 0abd 5003 2a3c aefe 1a3d
00000120: 49bd e1bc 7efb 56bd d89b 13bd d8bb d43a
00000130: 43c9 fbbc 90ce c2bc 5a72 6abd 0bd3 1dbd
00000140: 13c6 733d c8a0 3e3c c4e3 273d 6a41 5dbd
00000150: 72d2 b43c 410a 8b3d 6118 743d bb58 84bc
00000160: 41cd 08bd 9af5 ba3d 4a4e 7a3d 1c83 913a
00000170: 2037 193a e27e 68bd 51b5 54bc 7db9 163d
00000180: f287 193d 39de 61bd 3469 24bd a0b9 6c3d
00000190: d442 813d 4fa2 493d ce01 edbc 1a9e a8bd
000001a0: a0a3 023e 639f 9bbd dc6c c2bd 1c4e 253c
000001b0: b3f0 1a3d ef5e 1fbd 1120 10bd edbb 5bbd
000001c0: f409 5e3d bf36 293c ce0a 1c3c 652c 033d
000001d0: 824c d23c f613 acbc 4c1e 3dbb a6e6 41bd
000001e0: 129a 8f3c afbd c3bc b676 be3c ada7 223d
000001f0: 1577 20bd 4636 07bc d205 3d3d d261 11bd
00000200: f9ef a03c 24de 3abd 07bd afbc 1aef bdbc
00000210: 0ad7 98bd e828 5abd 2674 9a3c 01fe 42bd
00000220: 1daf 8d3c 8a82 973d 30b5 93bd b6a9 d8bd
00000230: 1b4c eebc f309 583d 976c 7c3d dce1 073e
00000240: 6e95 5cbc 514f 47bc abd9 933d ff31 c8bd
00000250: f582 ff3c 038e e33d

weight f4 [128, 150]
-0.06857372 -0.036058735 0.0006247853 0.036365844 0.043934673 0.030767838 -0.096927196 0.00891647
-0.065811396 -0.03634032 -0.012329258 -0.012512636 -0.03160657 -0.028896227 0.03905811 0.018169347
0.084402405 -0.064968504 -0.02579377 -0.03939241 0.08706988 0.047593452 0.067701906 -0.10345216
0.0012838683 -0.02452024 -0.021471327 0.051592797 -0.093087256 0.042931873 0.00091108767 0.04805466
-0.03222803 -0.034417182 0.0008710466 -0.0350909 -0.0447395 -0.025598392 0.0040311376 -0.051141746
0.06157346 -0.05155931 -0.0719112 -0.038050123 -0.06601177 0.017234787 -0.05165894 0.034844395
0.08998558 0.06827047 -0.06478324 -0.056883883 0.092450954 0.16289158 -0.038249888 0.005594092
0.034892797 -0.047751445 -0.04609482 -0.098226346 -0.0022921034 -0.10901567 0.033951923 -0.007158659
0.016047504 0.076085426 -0.008948095 0.094107136 -0.08897237 0.09796656 -0.009710206 0.09257944
-0.08737159 -0.118774466 -0.065975085 0.029050402 -0.031389598 0.030379781 -0.00044732357 -0.019728336
0.0052640843 -0.035473987 -0.04135539 0.013191011 -0.07372863 0.005022989 -0.0012790996 0.032919418
-0.09047481 -0.0069042966 0.057438344 -0.018512087 0.07897742 0.025556369 -0.002193857 -0.012438136
-0.020738969 0.017415313 -0.067162625 -0.052346695 0.016603256 0.0010732941 0.05310732 0.027453529
-0.004256432 0.04165085 0.06546093 0.027131494 0.005613432 0.098262034 0.007545741 0.040836442
-0.038148835 0.0042851157 0.03506764 -0.027369011 -0.035854373 0.033162553 -0.058500394 0.03438767
0.08443315 -0.0058172815 0.053354137 -0.04266432 -0.10114539 -0.053697843 0.048337232 0.10779957
-0.039357923 0.05670565 0.05699244 -0.06657845 -0.06389159 -0.031698212 -0.06731241 0.040386267
0.027138382 0.01600665 0.0626346 -0.04157519 -0.05142821 0.0088851005 0.006170001 0.035108782
-0.04614296 0.048180964 -0.081310764 0.0883493 -0.0013142223 0.06647925 0.14783643 0.02575554
-0.053364567 -0.105326824 -0.034416627 -0.04985702 -0.04775781 0.058403913 0.016974403 0.08347349
0.073493265 -0.08740951 -0.028657086 0.072358325 -0.09930389 -0.07129622 -0.004551754 0.016987555
-0.0026487815 -0.09017323 -0.023927223 0.023365438 0.010285617 -0.053493433 -0.05392488 -0.026471013
-0.0047764326 0.078538254 0.02646371 0.04824164 0.019448586 -0.09662607 0.09103783 0.027379196
0.0204747 0.05235579 -0.056913428 -0.040610008 0.10599164 -0.07576165 0.031652793 0.034141473
-0.0062667415 -0.0022585413 -0.090847835 -0.10879167 -0.057121485 -0.12866084 0.063868314 -0.028097974
-0.01962963 -0.059474774 -0.07706309 -0.053720154 -0.061292123 0.07066752 0.110984884 0.08659673
0.066732064 0.068651885 -0.08751605 -0.061383795 -0.054149788 0.038972437 0.04434154 -0.0022089393
-0.06644024 0.08887873 -0.07548728 0.011510203 -0.04452554 -0.039736956 -0.05883602 -0.009841273
-0.03932099 0.058763556 0.11208612 0.011357409 0.055663567 0.06295676 -0.054485817 -0.06747846
-0.034554847 0.062278174 0.051979356 0.005252002 0.05901245 -0.0032394312 0.05240619 0.016887452
-0.104658134 -0.0901887 0.013931965 0.010725757 -0.02790483 0.06798761 -0.058742464 -0.070123434
0.05958607 0.044957984 0.10455014 0.057270255 0.10558957 0.062431514 -0.0016020322 0.06929781
00000000: 6170 8cbd 53b2 13bd a2c8 233a 5af4 143d
00000010: d8f4 333d d50c fc3c c481 c6bd 6316 123c
00000020: 20c8 86bd 96d9 14bd a800 4abc cd01 4dbc
00000030: e475 01bd c8b7 ecbc 66fb 1f3d e2d7 943c
00000040: 2bdb ac3d 350e 85bd 754d d3bc f059 21bd
00000050: b151 b23d 5af1 423d 4ca7 8a3d bade d3bd
00000060: 7947 a83a acde c8bc a3e4 afbc f852 533d
00000070: 88a4 bebd 55d9 2f3d 0fd6 6e3a f7d4 443d
00000080: 8a01 04bd 08f9 0cbd f356 643a 7abb 0fbd
00000090: c440 37bd b8b3 d1bc a217 843b 027a 51bd
000000a0: 7434 7c3d db2f 53bd 2e46 93bd 72da 1bbd
000000b0: 2e31 87bd f82f 8d3c 5398 53bd ffb8 0e3d
000000c0: 5c4a b83d 63d1 8b3d 13ad 84bd 13ff 68bd
000000d0: ed56 bd3d 0dcd 263e eaab 1cbd a54e b73b
000000e0: c0eb 0e3d 0597 43bd eccd 3cbd e52a c9bd
000000f0: 1d37 16bb 9c43 dfbd 2c11 0b3d 2f93 eabb
00000100: 0e76 833c add2 9b3d 089b 12bc 3ebb c03d
00000110: 2537 b6bd b1a2 c83d 8e17 1fbc 4a9a bd3d
00000120: e0ef b2bd 0740 f3bd f21d 87bd 1cfb ed3c
00000130: 6192 00bd 05df f83c c186 eab9 529d a1bc
00000140: 577e ac3b 2c4d 11bd 4564 29bd 1c1f 583c
00000150: 09ff 96bd e397 a43b 76a7 a7ba 83d6 063d
00000160: db4a b9bd 703d e2bb 7844 6b3d a9a6 97bc
00000170: eabe a13d 975b d13c d0c6 0fbb 53c9 4bbc
00000180: c5e4 a9bc 8faa 8e3c 8f8c 89bd 7d69 56bd
00000190: 8d03 883c c6ad 8c3a 1087 593d 39e6 e03c
000001a0: 8a79 8bbb 159a 2a3d 6110 863d de42 de3c
000001b0: e1f0 b73b 9b3d c93d 4342 f73b 1d44 273d
000001c0: f441 1cbd 286a 8c3b 16a3 0f3d fa34 e0bc
000001d0: 09dc 12bd 75d5 073d 1c9e 6fbd 16da 0c3d
000001e0: 4aeb ac3d e59e bebb de89 5a3d c8c0 2ebd
000001f0: 5025 cfbd 45f2 5bbd 43fd 453d 05c6 dc3d
00000200: c635 21bd 2f44 683d e870 693d 485a 88bd
00000210: 98d9 82bd fcd5 01bd 17db 89bd 126c 253d
00000220: 5051 de3c 6120 833c 9246 803d bf4a 2abd
00000230: 63a6 52bd d092 113c b82d ca3b 3ace 0f3d
00000240: 6700 3dbd 6759 453d 4286 a6bd 7af0 b43d
00000250: fc41 acba 4626 883d 6f62 173e 48fd d23c
00000260: ce94 5abd 97b5 d7bd 73f8 0cbd e036 4cbd
00000270: b29d 43bd f138 6f3d e70d 8b3c 26f4 aa3d
00000280: a383 963d c203 b3bd 44c2 eabc 9a30 943d
00000290: d65f cbbd c103 92bd e126 95bb 7c29 8b3c
000002a0: 2e97 2dbb beac b8bd 0603 c4bc e068 bf3c
000002b0: 0185 283c ee1b 5bbd 56e0 5cbd bdd9 d8bc
000002c0: 9f83 9cbb aad8 a03d 6cca d83c 0799 453d
000002d0: a452 9f3c e4e3 c5bd 0b72 ba3d 564a e03c
000002e0: 8fba a73c 0673 563d 0e1e 69bd ae56 26bd
000002f0: 2512 d93d ed28 9bbd 5ca6 013d eed7 0b3d
00000300: 3d59 cdbb 0904 14bb 6e0e babd 2bce debd
00000310: 38f8 69bd abbf 03be 64cd 823d b92d e6bc
00000320: 51ce a0bc d29b 73bd 41d3 9dbd aa09 5cbd
00000330: 730d 7bbd 22ba 903d 0b4c e33d a059 b13d
00000340: d2aa 883d 5c99 8c3d 9d3b b3bd 936d 7bbd
00000350: 2bcc 5dbd 90a1 1f3d 7a9f 353d dac3 10bb
00000360: d211 88bd 0d06 b63d 1399 9abd 4a95 3c3c
00000370: 6a60 36bd 38c3 22bd 0afe 70bd 4a3d 21bc
00000380: 0c0f 21bd 0eb2 703d 688d e53d 6d14 3a3c
00000390: 7bff 633d 79ef 803d 852c 5fbd 2632 8abd
000003a0: 6289 0dbd 6617 7f3d 4ee8 543d fc18 ac3b
000003b0: 0ab7 713d a34c 54bb e0a7 563d 8e57 8a3c
000003c0: 0157 d6bd dab4 b8bd e642 643c 16bb 2f3c
000003d0: ac98 e4bc 173d 8b3d f09b 70bd e09c 8fbd
000003e0: 8610 743d dd25 383d 621e d63d 3794 6a3d
000003f0: 583f d83d 30b8 7f3d 48fb d1ba 03ec 8d3d

bias f4 [128]
0.0037039863 -0.04302511 -0.031538762 -0.03159372 0.0024862515 -0.04713105 -0.028328778 -0.06422761
-0.0394188 0.0013133227 0.02177366 -0.011755506 -0.022739777 0.04331236 -0.017673813 -0.03747818
-0.068317376 -0.060498755 -0.019400699 0.004036767 0.0074271336 0.043149535 -0.03631963 0.07136767
-0.05621569 0.0035634711 0.05072467 0.05076813 0.073114865 0.014220908 0.07779782 0.04439828
0.051275596 0.030228607 -0.003445366 0.008511278 -0.026333096 0.039490905 0.025833309 0.04634087
-0.050134864 0.048966307 -0.04552878 -0.01942318 0.03945329 -0.024560586 -0.009599143 0.09247437
-0.03443581 0.03214148 -0.028845657 0.0735282 0.06744111 0.013611389 -0.07607956 -0.056700926
-0.10458705 0.05784972 0.010512361 -0.023071062 -0.11209777 -0.09374983 0.07316741 -0.012486005
-0.023043342 -0.023149027 -0.0060580396 -0.07953865 0.0050431276 -0.030253123 0.0026869597 -0.089844905
0.04591313 0.013741902 0.013113026 -0.0057179495 -0.18762603 -0.038943335 0.021143213 0.03255468
0.0005030183 0.0045027714 0.14234522 -0.021710902 0.072968185 -0.002146802 -0.004179954 -0.024111079
-0.041405614 -0.044409115 0.054076597 -0.09144447 -0.0027830792 -0.021810299 -0.09349472 0.083106935
-0.020026658 0.085522555 0.01459819 -0.07135368 0.10245483 -0.06143564 -0.022526689 0.069031104
-0.09880712 0.08096356 -0.033842616 -0.045103855 -0.020185512 -0.026511932 -0.02551568 -0.05045227
0.056109805 0.03029526 -0.021702724 -0.058600266 0.06489275 0.0054520387 -0.12611733 -0.00258264
-0.063346684 -0.003065579 0.024206523 0.044417217 -0.066640265 -0.013680558 -0.007160392 0.012984942
00000000: 94be 723b 193b 30bd ca2e 01bd 6b68 01bd
00000010: 61f0 223b 7d0c 41bd c111 e8bc c489 83bd
00000020: 9c75 21bd cc23 ac3a ad5e b23c 2a9a 40bc
00000030: c548 babc 4d68 313d acc8 90bc b882 19bd
00000040: fbe9 8bbd 8bcd 77bd 37ee 9ebc db46 843b
00000050: 505f f33b 91bd 303d e4c3 14bd 3729 923d
00000060: 6c42 66bd 2089 693b acc4 4f3d 3ef2 4f3d
00000070: 3fbd 953d d0fe 683c 7754 9f3d f9da 353d
00000080: 5c06 523d fca1 f73c a6cb 61bb e372 0b3c
00000090: 81b8 d7bc 37c1 213d 60a0 d33c edcf 3d3d
000000a0: 375a 4dbd e590 483d 637c 3abd 5c1d 9fbc
000000b0: c699 213d 4833 c9bc b945 1dbc 3463 bd3d
000000c0: 900c 0dbd c9a6 033d ba4d ecbc f495 963d
000000d0: 911e 8a3d 4e02 5f3c 9acf 9bbd 3b3f 68bd
000000e0: bc31 d6bd d4f3 6c3d 0a3c 2c3c 86ff bcbc
000000f0: 8493 e5bd e9ff bfbd ccd8 953d 1a92 4cbc
00000100: 64c5 bcbc 07a3 bdbc 8582 c6bb 29e5 a2bd
00000110: d240 a53b 66d5 f7bc b417 303b 9b00 b8bd
00000120: 680f 3c3d b725 613c 04d8 563c a35d bbbb
00000130: 0a21 40be 0c83 1fbd 8834 ad3c 0e58 053d
00000140: fddc 033a fc8b 933b f2c2 113e 10db b1bc
00000150: 5870 953d 5cb1 0cbb fff7 88bb 9984 c5bc
00000160: ef98 29bd 55e6 35bd 6c7f 5d3d 3d47 bbbd
00000170: 5264 36bb 83ab b2bc 297a bfbd f833 aa3d
00000180: f20e a4bc 7326 af3d 3f2d 6f3c e121 92bd
00000190: d7d3 d13d f0a3 7bbd e489 b8bc 2e60 8d3d
000001a0: 635b cabd 39d0 a53d 8e9e 0abd d2be 38bd
000001b0: 165c a5bc 8d2f d9bc 4206 d1bc 0aa7 4ebd
000001c0: 65d3 653d c42d f83c e9c9 b1bc d506 70bd
000001d0: 7de6 843d 04a7 b23b e724 01be 8241 29bb
000001e0: e8bb 81bd e2e7 48bb c24c c63c d4ee 353d
000001f0: b17a 88bd 6b24 60bc b9a1 eabb cbbe 543c

weight f4 [100, 185]
0.09800106 0.13391027 -0.06410761 0.25391263 0.26119062 0.101936504 -0.27148393 -0.12116216
0.14274253 -0.09869393 -0.4389447 0.0017159045 -0.052076012 -0.08190354 -0.023845987 -0.095414594
-0.0015443126 0.1669345 0.2047588 0.12525126 -0.07179664 0.03378734 0.019019913 -0.059055757
0.21596171 0.42470428 -0.012770608 -0.056537632 0.026428282 0.068905815 -0.043700997 -0.054493003
0.05947961 0.070754156 -0.04446592 0.06327857 0.020928822 -0.05469093 -0.01714658 -0.06043201
-0.019594366 0.07323256 -0.016042784 -0.023334485 0.06908001 0.055004776 -0.01990217 0.015626773
0.012364358 -0.03827691 -0.01913764 -0.014070522 -0.26463324 0.066528425 -0.06587044 0.040050477
-0.063669145 0.039725166 0.13473335 -0.0118262 0.031505845 0.021144638 -0.079961896 -0.055224538
-0.10633595 -0.022898346 0.035746653 0.017738344 -0.019182613 0.036722038 0.10943004 0.08166535
0.20249186 -0.053891804 0.026803944 -0.053822935 0.002868176 -0.081080504 -0.052765496 0.00433728
0.06259464 0.031403553 -0.010736823 0.08952216 0.14856674 -0.09700471 0.025436755 -0.09202455
-0.028412871 0.019087065 -0.033760365 0.0057102353 0.04715001 0.05382694 0.038094204 -0.011658684
0.02941282 0.024350325 0.013450874 -0.0009435556 0.024757544 -0.052684456 -0.036244836 -0.06981402
0.019067992 -0.051363938 -0.05014526 0.07210625 -0.09967109 -0.05619539 -0.061791398 -0.06766586
-0.017038506 0.16069001 -0.046942074 0.0078589795 -0.034759685 -0.010207098 -0.07364338 0.02340201
-0.025197858 0.06432906 -0.036487963 0.04535966 0.032593675 0.0522841 -0.038924437 -0.04632687
0.035570715 0.069192536 -0.07530856 0.010576137 -0.10039282 0.04486499 0.10068686 -0.057942767
-0.02244857 0.0954023 0.051526163 0.07219374 -0.010214894 0.005476106 -0.014156971 -0.091318525
0.022107854 -0.06713155 0.08537791 -0.040579163 -0.010500136 0.12566903 0.105294995 0.037210073
0.07415163 -0.022062328 0.06784393 -0.05669055 0.044885132 0.104640834 -0.19694568 -0.033561304
0.15990302 0.015351215 -0.011460203 0.035860498 0.010566922 -0.04497475 -0.02993741 -0.0070987656
-0.12841618 0.07738567 0.0641922 -0.015207697 -0.030153757 0.0066973446 0.017232673 -0.109686464
-0.114497535 0.056134477 -0.042281423 0.04487015 0.025680708 -0.051409274 0.07169524 -0.04606058
-0.03186677 0.15880269 0.17039725 -0.1421044 0.15249318 -0.014126699 0.17139561 -0.13629897
0.12182636 -0.5317238 -0.01287195 -0.11077442 0.12158414 -0.054951377 -0.22669825 -0.24287829
0.03903749 -0.010993141 0.30371818 0.645703 -0.046772424 -0.22115389 0.42686304 -0.08047941
-0.045230795 0.11504333 0.04022695 0.007326536 0.01766275 -0.020354338 0.036520436 -0.06377441
0.0009185299 -0.02830451 -0.007257968 -0.002109103 -0.0702754 0.049457252 0.05159779 -0.0077660605
-0.071112975 -0.008846163 -0.023798842 -0.066843554 0.016242482 0.035760313 -0.02987862 0.0120756775
0.026186898 -0.06510526 0.007553503 0.018156007 -0.039024282 -0.32755333 0.036440395 -0.00932657
-0.03903003 -0.04003455 0.05624447 -0.028704751 -0.0113776615 0.07623563 -0.01446001 -0.07634834
-0.06390781 0.044164613 0.011766452 0.06646307 -0.06680205 0.013667419 0.002157724 0.09594939
00000000: c8b4 c83d c61f 093e da4a 83bd d600 823e
00000010: c7ba 853e 16c4 d03d f1ff 8abe de23 f8bd
00000020: 192b 123e 0b20 cabd 5cbd e0be 33e8 e03a
00000030: a84d 55bd 0bbd a7bd a958 c3bc ba68 c3bd
00000040: 886a caba e1f0 2a3e 4aac 513e de41 003e
00000050: 1e0a 93bd 9864 0a3d a6cf 9b3c 73e4 71bd
00000060: 1125 5d3e d772 d93e d03b 51bc 0194 67bd
00000070: 2080 d83c 7e1e 8d3d d1ff 32bd 0e34 5fbd
00000080: e4a0 733d 8ee7 903d e621 36bd 3298 813d
00000090: ec72 ab3c 9903 60bd fc76 8cbc 8e87 77bd
000000a0: 5d84 a0bc f4fa 953d 286c 83bc f627 bfbc
000000b0: d279 8d3d b04c 613d e009 a3bc b803 803c
000000c0: e093 4a3c 40c8 1cbd 8ac6 9cbc 0c88 66bc
000000d0: 027e 87be 0e40 883d 15e7 86bd f80b 243d
000000e0: f864 82bd dbb6 223d 8af7 093e aec2 41bc
000000f0: 460c 013d 8537 ad3c 10c3 a3bd 2033 62bd
00000100: aac6 d9bd 5095 bbbc 156b 123d 0150 913c
00000110: db24 9dbc d969 163d db1c e03d 2a40 a73d
00000120: 075a 4f3e a7bd 5cbd f293 db3c 7075 5cbd
00000130: 02f8 3b3b 890d a6bd a220 58bd be1f 8e3b
00000140: 9e31 803d 03a1 003d 80e9 2fbc 6557 b73d
00000150: e121 183e 68aa c6bd be60 d03c 5e77 bcbd
00000160: 1cc2 e8bc 7a5c 9c3c 4f48 0abd ed1c bb3b
00000170: 5e20 413d a379 5c3d ab08 1c3d 1104 3fbc
00000180: 27f3 f03c 557a c73c 0e61 5c3c f258 77ba
00000190: 55d0 ca3c a8cb 57bd 7775 14bd a7fa 8ebd
000001a0: 7a34 9c3c fe62 52bd 1e65 4dbd 71ac 933d
000001b0: 5b20 ccbd 232d 66bd fa18 7dbd 6694 8abd
000001c0: 5694 8bbc ec8b 243e 5546 40bd f3c2 003c
000001d0: 2c60 0ebd ac3b 27bc 57d2 96bd 92b5 bf3c
000001e0: bd6b cebc f4be 833d 6774 15bd 0dcb 393d
000001f0: f280 053d da27 563d 3b6f 1fbd 3ec1 3dbd
00000200: 99b2 113d d1b4 8d3d 603b 9abd 8947 2d3c
00000210: c09a cdbd 5ac4 373d ea34 ce3d 6555 6dbd
00000220: 10e6 b7bc 4862 c33d 190d 533d 50da 933d
00000230: 5f5c 27bc e870 b33b a4f2 67bc 3505 bbbd
00000240: 881b b53c 447c 89bd 9dda ae3d 5636 26bd
00000250: c308 2cbc 62af 003e e7a4 d73d 9769 183d
00000260: cfdc 973d 0ebc b4bc c2f1 8a3d 5a34 68bd
00000270: 79d9 373d ef4d d63d 21ac 49be 9477 09bd
00000280: 9ebd 233e aa83 7b3c 93c3 3bbc 75e2 123d
00000290: e220 2d3c 7237 38bd 4d3f f5bc c39c e8bb
000002a0: 887f 03be 617c 9e3d 3377 833d b429 79bc
000002b0: 0305 f7bc 6675 db3b 892b 8d3c 4ca3 e0bd
000002c0: af7d eabd 44ed 653d 492f 2dbd c3c9 373d
000002d0: 5960 d23c 8892 52bd f4d4 923d 05aa 3cbd
000002e0: bb86 02bd 2c9d 223e 9e7c 2e3e d183 11be
000002f0: 2c27 1c3e ac73 67bc 5582 2f3e f591 0bbe
00000300: 1980 f93d 0d1f 08bf dfe4 52bc b3dd e2bd
00000310: 1b01 f93d b214 61bd 9623 68be 16b5 78be
00000320: c6e5 1f3d 931c 34bc f380 9b3e cb4c 253f
00000330: 7194 3fbd 2a76 62be cb8d da3e 64d2 a4bd
00000340: ed43 39bd d69b eb3d 04c5 243d 7013 f03b
00000350: 79b1 903c 24be a6bc 7496 153d 289c 82bd
00000360: 80c9 703a dcde e7bc 40d4 edbb e038 0abb
00000370: 8dec 8fbd b093 4a3d 3458 533d 707a febb
00000380: aea3 91bd 7fef 10bc caf5 c2bc 46e5 88bd
00000390: f40e 853c 6879 123d 02c4 f4bc 10d9 453c
000003a0: e885 d63c e855 85bd 6083 f73b e8bb 943c
000003b0: edd7 1fbd 12b5 a7be 8642 153d 78ce 18bc
000003c0: f4dd 1fbd 45fb 23bd 9a60 663d 3a26 ebbc
000003d0: 5f69 3abc 6d21 9c3d aee9 6cbc 855c 9cbd
000003e0: 19e2 82bd f4e5 343d 14c8 403c ca1d 883d
000003f0: 83cf 88bd 4fed 5f3c 9a68 0d3b 1d81 c43d

bias f4 [100]
-0.034687568 -0.045829408 -0.20332061 -0.10440041 0.17059544 0.16005743 0.14743008 0.22811955
0.011203849 0.034009166 0.03518195 -0.16366579 0.12387271 -0.14254373 -0.15328382 0.036362793
-0.053936526 -0.10144787 0.006882905 -0.14562412 -0.024009984 -0.034791674 -0.013024632 -0.25509351
0.011972114 -0.062453374 0.027394494 -0.13531913 -0.10121202 -0.13213561 -0.065192945 -0.16157927
0.039398946 -0.11892725 -0.25139725 -0.14489877 -0.044803675 0.0021895585 0.25387737 -0.016800502
0.016444553 -0.1539927 0.20229083 -0.1701994 -0.19602406 -0.2769423 0.053332314 -0.12807809
0.110804066 -0.039095648 -0.058475442 0.03731364 0.07829851 0.07480027 -0.108994044 0.08013861
0.09109428 0.08083773 -0.12128973 0.1001691 0.10484166 -0.030886112 0.16807556 0.05493827
-0.13585627 -0.19560426 -0.36244282 -0.020821411 -0.12845547 0.13411641 -0.15588085 0.14337075
-0.0792919 -0.08427442 -0.15987536 0.11891584 -0.07136168 0.018216329 0.103172526 -0.11404803
0.11165235 -0.07382615 -0.16509783 0.33725172 -0.23131913 0.041559406 0.078912005 -0.024355428
-0.039895184 -0.013860864 -0.0756347 0.16558398 0.06606459 0.19706528 0.13045402 0.032384288
0.221741 -0.0026857974 -0.0918968 0.05437395
00000000: 8d14 0ebd 9eb7 3bbd 4733 50be e2cf d5bd
00000010: 92b0 2e3e 18e6 233e e9f7 163e 2c98 693e
00000020: 5990 373c 324d 0b3d f31a 103d 0198 27be
00000030: fab0 fd3d fcf6 11be 6ff6 1cbe 27f1 143d
00000040: 8cec 5cbd e7c3 cfbd fe89 e13b 7d1e 15be
00000050: 96b0 c4bc b781 0ebd 4465 55bc 9e9b 82be
00000060: b026 443c 1ccf 7fbd 6b6a e03c 1991 0abe
00000070: 3f48 cfbd 8f4e 07be e183 85bd 0975 25be
00000080: ca60 213d 2190 f3bd 24b7 80be 5860 14be
00000090: 0f84 37bd b27e 0f3b 37fc 813e 35a1 89bc
000000a0: bab6 863c 43b0 1dbe 5425 4f3e c048 2ebe
000000b0: 88ba 48be 62cb 8dbe fc72 5a3d e726 03be
000000c0: 3eed e23d c222 20bd f283 6fbd 30d6 183d
000000d0: f85a a03d e230 993d 4538 dfbd b61f a43d
000000e0: a38f ba3d 408e a53d c066 f8bd 7525 cd3d
000000f0: 39b7 d63d df04 fdbc 001c 2c3e f406 613d
00000100: e81d 0bbe 7c4c 48be 1b92 b9be aa91 aabc
00000110: d589 03be d055 093e 3b9f 1fbe c8cf 123e
00000120: cb63 a2bd 1198 acbd 5eb6 23be 268a f33d
00000130: 1326 92bd 693a 953c 1e4c d33d 0392 e9bd
00000140: fda9 e43d 2a32 97bd 680f 29be 42ac ac3e
00000150: ecde 6cbe 323a 2a3d 9e9c a13d 0985 c7bc
00000160: 2269 23bd ad18 63bc 5ee6 9abd d98e 293e
00000170: df4c 873d 7bcb 493e bd95 053e 63a5 043d
00000180: 1310 633e 3404 30bb 6434 bcbd 38b7 5e3d

weight f4 [18, 100]
0.2859073 0.26950562 -0.015465919 0.014104754 0.7154252 0.10804859 -0.04179026 -0.027682317
-0.17583622 -0.3131641 -0.36664003 0.3085277 0.4580855 0.053986654 0.09475038 -0.21369231
0.24874783 -0.16462453 -0.19967508 -0.44960696 0.24001284 -0.25347045 -0.19392103 -0.3915661
-0.34380448 0.19778258 -0.4774734 -0.017932422 -0.2839289 -0.21382153 -0.115748465 0.12445198
0.19687684 0.48983943 0.28887394 -0.575781 0.1154218 -0.09152863 0.23188335 0.006504462
0.39158085 -0.52767825 0.44783908 0.23400256 -0.06521348 0.050937396 -0.08675198 0.16192189
0.31213796 0.15984324 0.15801318 0.41325954 0.17832671 0.4377113 -0.014472876 -0.0701241
0.047364917 -0.06545229 0.40391642 -0.61410785 0.25927386 0.068267465 0.26665288 0.10826826
0.37035066 0.4815815 -0.16449021 -0.383931 0.45102718 -0.056405775 0.21966054 0.06812958
0.3499225 0.37990764 0.15882394 0.22784685 -0.42644033 -0.06260515 0.24848022 0.038577817
0.14327157 -0.01090075 -0.23018235 0.117269784 -0.2986114 0.3515612 0.08980269 0.104254745
0.034804687 0.01148119 0.054490693 0.2100179 -0.3047493 0.03593678 -0.124446735 -0.26828408
0.019367188 0.39120165 -0.22386599 0.15975355 -0.50643003 -0.49634612 -0.51071894 -0.38322324
0.46916327 0.06230236 -0.18169372 -0.28168193 -0.17951831 0.047828216 -0.23994723 -0.39464498
-0.14027096 -0.499505 -0.27137524 0.36714828 -0.36390585 -0.10750753 -0.24153231 0.46271914
-0.20124078 -0.004713171 0.20344332 -0.13521002 -0.30126083 0.08783371 0.4115424 0.08975635
-0.11493189 0.24767742 -0.045123167 -0.57053226 0.25842413 0.23281844 -0.43375313 -0.2022755
0.18308327 -0.5578421 -0.043970577 0.4520665 -0.14347197 0.12950146 -0.39495698 -0.4022717
0.657434 0.14210802 0.23843254 -0.35859892 0.2218084 0.42605048 -0.07740119 0.108803056
-0.24539723 -0.58162296 0.044267558 0.24617557 0.0069044945 -0.007182349 -0.20220365 -0.017481163
-0.23176844 0.29109132 -0.07856077 0.23882459 -0.51742136 0.20756546 -0.4574123 -0.39167085
0.19264427 0.06314699 0.34306002 -0.23429751 0.14268489 -0.067290515 0.12771665 0.028552722
0.16246262 0.37225097 0.21889777 -0.1572882 -0.106624104 0.2494802 -0.00745054 0.08689928
0.25769955 -0.5870893 -0.16331983 -0.08976765 0.16318429 0.4209267 0.19409837 -0.33087558
-0.10401796 -0.04197029 -0.12692724 0.24827163 0.1586816 0.047390256 0.24072996 -0.07880039
-0.21661066 0.2902407 -0.03011899 -0.056043882 0.041878868 0.36134157 0.22003812 0.00018621582
-0.08528515 -0.30924487 0.060915016 -0.0710118 0.1717293 -0.0070948047 0.08464997 0.094325714
0.032133497 0.023095263 0.103441216 -0.41669157 -0.08571811 -0.09662492 0.044370167 0.33715004
0.07082535 -0.2720031 -0.1520912 -0.404079 -0.27993172 -0.16903229 -0.106281556 -0.103398815
-0.17889474 -0.2077506 0.36800036 0.17909868 -0.33618286 -0.0006271093 0.20366243 -0.4763834
-0.09890859 -0.18752423 -0.0014303612 -0.21061198 -0.49436352 -0.46688616 -0.057686478 -0.09795808
-0.2845113 -0.04929329 -0.059205282 -0.3714128 0.2769773 -0.11707512 -0.018052436 -0.27542728
00000000: 7162 923e a4fc 893e c464 7dbc a017 673c
00000010: 1b26 373f 9448 dd3d 432c 2bbd 07c6 e2bc
00000020: 690e 34be 0b57 a0be 3eb8 bbbe 58f7 9d3e
00000030: 2f8a ea3e 1c21 5d3d 7d0c c23d 28d2 5abe
00000040: c0b7 7e3e 5593 28be a077 4cbe e232 e6be
00000050: edc5 753e e1c6 81be 3c93 46be 5a7b c8be
00000060: 2407 b0be 8487 4a3e 6577 f4be 04e7 92bc
00000070: 215f 91be 08f4 5abe 880d edbd aee0 fe3d
00000080: 159a 493e 3ccc fa3e 49e7 933e 6266 13bf
00000090: 4462 ec3d 5d73 bbbd d472 6d3e 6223 d53b
000000a0: 497d c83e ec15 07bf 2a4b e53e 5e9e 6f3e
000000b0: a58e 85bd bba3 503d 06ab b1bd dace 253e
000000c0: 8cd0 9f3e f2ad 233e 35ce 213e c196 d33e
000000d0: 479b 363e b21b e03e a41f 6dbc 399d 8fbd
000000e0: b701 423d da0b 86bd 22ce ce3e 2c36 1dbf
000000f0: 8bbf 843e d0cf 8b3d ba86 883e c0bb dd3d
00000100: 9a9e bd3e da91 f63e 1f70 28be 9b92 c4be
00000110: 09ed e63e be09 67bd b1ee 603e 8587 8b3d
00000120: 0b29 b33e 4183 c23e bea2 223e af50 693e
00000130: 6356 dabe 2137 80bd 9971 7e3e c603 1e3d
00000140: c8b5 123e 0f99 32bc ecb4 6bbe 242b f03d
00000150: 98e3 98be d4ff b33e 79ea b73d 8383 d53d
00000160: 5c8f 0e3d 9a1b 3c3c a231 5f3d ef0e 573e
00000170: 1a08 9cbe 7232 133d eedd febd 885c 89be
00000180: f0a7 9e3c 954b c83e 203d 65be 6f96 233e
00000190: 66a5 01bf 1421 febe 7abe 02bf d635 c4be
000001a0: 2b36 f03e c230 7f3d eb0d 3abe 9d38 90be
000001b0: a6d3 37be 85e7 433d bab4 75be e80e cabe
000001c0: 31a3 0fbe 1fbf ffbe b2f1 8abe dcfa bb3e
000001d0: de51 babe e82c dcbd 3f54 77be 86e9 ec3e
000001e0: 1012 4ebe f270 9abb 7253 503e 7f74 0abe
000001f0: dc3e 9abe 29e2 b33d afb5 d23e 2dd2 b73d
00000200: 6961 ebbd 269f 7d3e 12d3 38bd 670e 12bf
00000210: 2b50 843e f567 6e3e e414 debe 4f21 4fbe
00000220: 2e7a 3b3e bdce 0ebf 7e1a 34bd 4375 e73e
00000230: 51ea 12be 089c 043e cd37 cabe 8ef6 cdbe
00000240: 984d 283f c484 113e a927 743e 479a b7be
00000250: be21 633e 4a23 da3e 8484 9ebd 23d4 de3d
00000260: 6949 7bbe 3ee5 14bf e651 353d 7315 7c3e
00000270: 193f e23b e959 ebbb 790e 4fbe a834 8fbc
00000280: b554 6dbe ec09 953e 78e4 a0bd 6f8e 743e
00000290: ba75 04bf 0a8c 543e f231 eabe 1589 c8be
000002a0: 8a44 453e 3653 813d 90a5 af3e b0eb 6fbe
000002b0: fd1b 123e 9ccf 89bd 27c8 023e 66e7 e93c
000002c0: 9a5c 263e ae97 be3e bd26 603e 2810 21be
000002d0: bd5d dabd bd77 7f3e a923 f4bb 40f8 b13d
000002e0: 32f1 833e 7c4b 16bf 503d 27be 1ad8 b7bd
000002f0: c819 273e b483 d73e b9c1 463e 8668 a9be
00000300: 5e07 d5bd 0ae9 2bbd 37f9 01be eb3a 7e3e
00000310: 6e7d 223e 491c 423d ea81 763e 1962 a1bd
00000320: 2fcf 5dbe 6e9a 943e 1abc f6bc 458e 65bd
00000330: 2d89 2b3d c301 b93e ac51 613e ee42 4339
00000340: fba9 aebd 5855 9ebe 0682 793d a26e 91bd
00000350: ced9 2f3e 897b e8bb f75c ad3d d72d c13d
00000360: 6a9e 033d 4732 bd3c fdd8 d33d 9958 d5be
00000370: fa8c afbd 49e3 c5bd 7ebd 353d ee9e ac3e
00000380: e20c 913d fe43 8bbe ccbd 1bbe 71e3 cebe
00000390: 3653 8fbe cd16 2dbe 25aa d9bd c2c2 d3bd
000003a0: 2f30 37be 93bc 54be 8b6a bc3e a565 373e
000003b0: 2920 acbe 9864 24ba e28c 503e 86e8 f3be
000003c0: 9690 cabd 5a06 40be f57a bbba abaa 57be
000003d0: 371d fdbe b40b efbe a848 6cbd 3f9e c8bd
000003e0: 77ab 91be c3e7 49bd 3d81 72bd d229 bebe
000003f0: f8cf 8d3e 15c5 efbd b4e2 93bc ce04 8dbe

bias f4 [18]
0.14612047 -0.10518774 0.26005086 0.06804556 0.2804285 -0.094493315 0.15295155 -0.47518373
0.011519949 -0.12619883 -0.10017568 0.17976637 -0.063299656 -0.25936452 0.11407688 -0.07792058
0.08314043 -0.12302183
00000000: 9ba0 153e ab6c d7bd 6325 853e 785b 8b3d
00000010: 5394 8f3e b685 c1bd 559f 1c3e 484b f3be
00000020: 2bbe 3c3c 443a 01be e828 cdbd ad14 383e
00000030: 40a3 81bd 6dcb 84be 24a1 e93d d394 9fbd
00000040: 8845 aa3d dff2 fbbd
